node {
  name: "x"
  op: "Placeholder"
  attr {
    key: "dtype"
    value {
      type: DT_FLOAT
    }
  }
  attr {
    key: "shape"
    value {
      shape {
        dim {
          size: -1
        }
        dim {
          size: 50
        }
        dim {
          size: 50
        }
        dim {
          size: 3
        }
      }
    }
  }
}
node {
  name: "sequential_6/conv2d_6/Conv2D/ReadVariableOp/resource"
  op: "Const"
  attr {
    key: "dtype"
    value {
      type: DT_FLOAT
    }
  }
  attr {
    key: "value"
    value {
      tensor {
        dtype: DT_FLOAT
        tensor_shape {
          dim {
            size: 5
          }
          dim {
            size: 5
          }
          dim {
            size: 3
          }
          dim {
            size: 32
          }
        }
        tensor_content: "…"
      }
    }
  }
}
node {
  name: "sequential_6/conv2d_6/BiasAdd/ReadVariableOp/resource"
  op: "Const"
  attr {
    key: "dtype"
    value {
      type: DT_FLOAT
    }
  }
  attr {
    key: "value"
    value {
      tensor {
        dtype: DT_FLOAT
        tensor_shape {
          dim {
            size: 32
          }
        }
        tensor_content: "…"
      }
    }
  }
}
node {
  name: "sequential_6/flatten_6/Const"
  op: "Const"
  attr {
    key: "dtype"
    value {
      type: DT_INT32
    }
  }
  attr {
    key: "value"
    value {
      tensor {
        dtype: DT_INT32
        tensor_shape {
          dim {
            size: 2
          }
        }
        tensor_content: "\377\377\377\377 \n\000\000"
      }
    }
  }
}
node {
  name: "sequential_6/dense_11/MatMul/ReadVariableOp/resource"
  op: "Const"
  attr {
    key: "dtype"
    value {
      type: DT_FLOAT
    }
  }
  attr {
    key: "value"
    value {
      tensor {
        dtype: DT_FLOAT
        tensor_shape {
          dim {
            size: 2592
          }
          dim {
            size: 128
          }
        }
        tensor_content: "…"
      }
    }
  }
}
node {
  name: "sequential_6/dense_11/BiasAdd/ReadVariableOp/resource"
  op: "Const"
  attr {
    key: "dtype"
    value {
      type: DT_FLOAT
    }
  }
  attr {
    key: "value"
    value {
      tensor {
        dtype: DT_FLOAT
        tensor_shape {
          dim {
            size: 128
          }
        }
        tensor_content: "…"
      }
    }
  }
}
node {
  name: "sequential_6/dense_12/MatMul/ReadVariableOp/resource"
  op: "Const"
  attr {
    key: "dtype"
    value {
      type: DT_FLOAT
    }
  }
  attr {
    key: "value"
    value {
      tensor {
        dtype: DT_FLOAT
        tensor_shape {
          dim {
            size: 128
          }
          dim {
            size: 4
          }
        }
        tensor_content: "…"
      }
    }
  }
}
node {
  name: "sequential_6/dense_12/BiasAdd/ReadVariableOp/resource"
  op: "Const"
  attr {
    key: "dtype"
    value {
      type: DT_FLOAT
    }
  }
  attr {
    key: "value"
    value {
      tensor {
        dtype: DT_FLOAT
        tensor_shape {
          dim {
            size: 4
          }
        }
        tensor_content: "\277(\210<x\002\325<b\000\273\274\332*\242\274"
      }
    }
  }
}
node {
  name: "sequential_6/conv2d_6/Conv2D/ReadVariableOp"
  op: "Identity"
  input: "sequential_6/conv2d_6/Conv2D/ReadVariableOp/resource"
  attr {
    key: "T"
    value {
      type: DT_FLOAT
    }
  }
}
node {
  name: "sequential_6/conv2d_6/Conv2D"
  op: "Conv2D"
  input: "x"
  input: "sequential_6/conv2d_6/Conv2D/ReadVariableOp"
  attr {
    key: "T"
    value {
      type: DT_FLOAT
    }
  }
  attr {
    key: "data_format"
    value {
      s: "NHWC"
    }
  }
  attr {
    key: "dilations"
    value {
      list {
        i: 1
        i: 1
        i: 1
        i: 1
      }
    }
  }
  attr {
    key: "explicit_paddings"
    value {
      list {
      }
    }
  }
  attr {
    key: "padding"
    value {
      s: "VALID"
    }
  }
  attr {
    key: "strides"
    value {
      list {
        i: 1
        i: 1
        i: 1
        i: 1
      }
    }
  }
  attr {
    key: "use_cudnn_on_gpu"
    value {
      b: true
    }
  }
}
node {
  name: "sequential_6/conv2d_6/BiasAdd/ReadVariableOp"
  op: "Identity"
  input: "sequential_6/conv2d_6/BiasAdd/ReadVariableOp/resource"
  attr {
    key: "T"
    value {
      type: DT_FLOAT
    }
  }
}
node {
  name: "sequential_6/conv2d_6/BiasAdd"
  op: "BiasAdd"
  input: "sequential_6/conv2d_6/Conv2D"
  input: "sequential_6/conv2d_6/BiasAdd/ReadVariableOp"
  attr {
    key: "T"
    value {
      type: DT_FLOAT
    }
  }
  attr {
    key: "data_format"
    value {
      s: "NHWC"
    }
  }
}
node {
  name: "sequential_6/conv2d_6/Relu"
  op: "Relu"
  input: "sequential_6/conv2d_6/BiasAdd"
  attr {
    key: "T"
    value {
      type: DT_FLOAT
    }
  }
}
node {
  name: "sequential_6/max_pooling2d_6/MaxPool"
  op: "MaxPool"
  input: "sequential_6/conv2d_6/Relu"
  attr {
    key: "T"
    value {
      type: DT_FLOAT
    }
  }
  attr {
    key: "data_format"
    value {
      s: "NHWC"
    }
  }
  attr {
    key: "explicit_paddings"
    value {
      list {
      }
    }
  }
  attr {
    key: "ksize"
    value {
      list {
        i: 1
        i: 2
        i: 2
        i: 1
      }
    }
  }
  attr {
    key: "padding"
    value {
      s: "VALID"
    }
  }
  attr {
    key: "strides"
    value {
      list {
        i: 1
        i: 5
        i: 5
        i: 1
      }
    }
  }
}
node {
  name: "sequential_6/dropout_6/Identity"
  op: "Identity"
  input: "sequential_6/max_pooling2d_6/MaxPool"
  attr {
    key: "T"
    value {
      type: DT_FLOAT
    }
  }
}
node {
  name: "sequential_6/flatten_6/Reshape"
  op: "Reshape"
  input: "sequential_6/dropout_6/Identity"
  input: "sequential_6/flatten_6/Const"
  attr {
    key: "T"
    value {
      type: DT_FLOAT
    }
  }
  attr {
    key: "Tshape"
    value {
      type: DT_INT32
    }
  }
}
node {
  name: "sequential_6/dense_11/MatMul/ReadVariableOp"
  op: "Identity"
  input: "sequential_6/dense_11/MatMul/ReadVariableOp/resource"
  attr {
    key: "T"
    value {
      type: DT_FLOAT
    }
  }
}
node {
  name: "sequential_6/dense_11/MatMul"
  op: "MatMul"
  input: "sequential_6/flatten_6/Reshape"
  input: "sequential_6/dense_11/MatMul/ReadVariableOp"
  attr {
    key: "T"
    value {
      type: DT_FLOAT
    }
  }
  attr {
    key: "transpose_a"
    value {
      b: false
    }
  }
  attr {
    key: "transpose_b"
    value {
      b: false
    }
  }
}
node {
  name: "sequential_6/dense_11/BiasAdd/ReadVariableOp"
  op: "Identity"
  input: "sequential_6/dense_11/BiasAdd/ReadVariableOp/resource"
  attr {
    key: "T"
    value {
      type: DT_FLOAT
    }
  }
}
node {
  name: "sequential_6/dense_11/BiasAdd"
  op: "BiasAdd"
  input: "sequential_6/dense_11/MatMul"
  input: "sequential_6/dense_11/BiasAdd/ReadVariableOp"
  attr {
    key: "T"
    value {
      type: DT_FLOAT
    }
  }
  attr {
    key: "data_format"
    value {
      s: "NHWC"
    }
  }
}
node {
  name: "sequential_6/dense_11/Relu"
  op: "Relu"
  input: "sequential_6/dense_11/BiasAdd"
  attr {
    key: "T"
    value {
      type: DT_FLOAT
    }
  }
}
node {
  name: "sequential_6/dense_12/MatMul/ReadVariableOp"
  op: "Identity"
  input: "sequential_6/dense_12/MatMul/ReadVariableOp/resource"
  attr {
    key: "T"
    value {
      type: DT_FLOAT
    }
  }
}
node {
  name: "sequential_6/dense_12/MatMul"
  op: "MatMul"
  input: "sequential_6/dense_11/Relu"
  input: "sequential_6/dense_12/MatMul/ReadVariableOp"
  attr {
    key: "T"
    value {
      type: DT_FLOAT
    }
  }
  attr {
    key: "transpose_a"
    value {
      b: false
    }
  }
  attr {
    key: "transpose_b"
    value {
      b: false
    }
  }
}
node {
  name: "sequential_6/dense_12/BiasAdd/ReadVariableOp"
  op: "Identity"
  input: "sequential_6/dense_12/BiasAdd/ReadVariableOp/resource"
  attr {
    key: "T"
    value {
      type: DT_FLOAT
    }
  }
}
node {
  name: "sequential_6/dense_12/BiasAdd"
  op: "BiasAdd"
  input: "sequential_6/dense_12/MatMul"
  input: "sequential_6/dense_12/BiasAdd/ReadVariableOp"
  attr {
    key: "T"
    value {
      type: DT_FLOAT
    }
  }
  attr {
    key: "data_format"
    value {
      s: "NHWC"
    }
  }
}
node {
  name: "sequential_6/dense_12/Softmax"
  op: "Softmax"
  input: "sequential_6/dense_12/BiasAdd"
  attr {
    key: "T"
    value {
      type: DT_FLOAT
    }
  }
}
node {
  name: "NoOp"
  op: "NoOp"
  input: "^sequential_6/conv2d_6/BiasAdd/ReadVariableOp"
  input: "^sequential_6/conv2d_6/Conv2D/ReadVariableOp"
  input: "^sequential_6/dense_11/BiasAdd/ReadVariableOp"
  input: "^sequential_6/dense_11/MatMul/ReadVariableOp"
  input: "^sequential_6/dense_12/BiasAdd/ReadVariableOp"
  input: "^sequential_6/dense_12/MatMul/ReadVariableOp"
  attr {
    key: "_acd_function_control_output"
    value {
      b: true
    }
  }
}
node {
  name: "Identity"
  op: "Identity"
  input: "sequential_6/dense_12/Softmax"
  input: "^NoOp"
  attr {
    key: "T"
    value {
      type: DT_FLOAT
    }
  }
}
versions {
  producer: 1205
}
